experiments/cvae/take_0/weights.npz (npz, 609466 bytes, 38 tensors)

decoder.batch_norm_2.running_mean f4 [16]
000000 e1 bb 9b bf 40 94 84 3f be bf a5 bf ab 9a 66 bf
       -1.2166711 1.0357742 -1.294914 -0.90079755
000010 0d 4f 95 bf bc 2d 48 bf af 5c ad bd c6 f5 d4 bf
       -1.1664749 -0.78194785 -0.084649436 -1.6637504
000020 aa 3c af 3e 56 9f fa bd 63 57 98 bf 97 9f 59 bf
       0.3422597 -0.12237422 -1.1901668 -0.8500914
000030 40 ed af bd fd 56 a2 bf af 06 7e bf b1 f6 a9 bf
       -0.08590174 -1.2682797 -0.9922895 -1.3278409

decoder.batch_norm_1.running_mean f4 [32]
000000 0e 8a a9 be c7 28 54 bc f4 8a 09 bf 6c 07 19 bf
       -0.3311314 -0.012949175 -0.5372765 -0.5977695
000010 a3 ea f6 bd 0f a5 54 be 32 fe 8c be c3 1d 81 be
       -0.12056472 -0.2076609 -0.27537686 -0.2521802
000020 c7 20 c9 be e8 de ba bd d0 af 40 be 98 78 99 be
       -0.3928282 -0.09124547 -0.18817067 -0.29974818
000030 a1 2b 1d 3e 38 72 b0 bf 16 7a c0 3d 57 22 a6 3e
       0.15348674 -1.3784857 0.09398286 0.32448074
000040 70 55 f4 be 3d c5 6f bf 67 03 17 bf 29 7c 8f be
       -0.47721434 -0.93660337 -0.58989567 -0.28024414
000050 84 e7 03 3e db d8 fb bb 06 1a cd be 68 98 5f be
       0.12881285 -0.0076857633 -0.40058917 -0.21835482
000060 96 27 cb be a0 f0 41 be 1e 86 79 3d 80 f7 62 be
       -0.3967864 -0.18939447 0.06091892 -0.22164726
000070 54 b8 00 bf 18 48 80 be 6a ce 15 bf 33 6d 72 bd
       -0.5028126 -0.25055003 -0.5851809 -0.05918617

decoder.batch_norm_2.bias f4 [16]
000000 38 13 6f 3d b5 9e bd bd 31 36 52 be 97 f1 26 bd
       0.058367938 -0.092587866 -0.20528485 -0.04075774
000010 a4 f3 d2 3d 0e d4 24 be f6 9c 9d bd 06 40 e5 3d
       0.10300377 -0.16096517 -0.076959535 0.11193852
000020 e0 30 4b be c8 ec 05 be 3c f7 32 3d cf 50 cd be
       -0.19842863 -0.13078606 0.043692812 -0.40100715
000030 c6 a7 08 3d 63 4f 68 be 5b dc e2 3d 89 e2 1a 3e
       0.033363126 -0.22686534 0.11077186 0.15125479

decoder.batch_norm_1.weight f4 [32]
000000 c0 05 2f 3f b5 fc 2a 3f 0f ba 41 3f d5 ad 6b 3f
       0.6836815 0.6679185 0.7567453 0.9206212
000010 3a 3f 33 3f 11 aa 31 3f e1 c5 4a 3f 42 1b 33 3f
       0.7001835 0.69400126 0.7920819 0.6996347
000020 36 06 16 3f 42 48 3f 3f b5 52 33 3f 81 fa 38 3f
       0.5860323 0.7471963 0.70048076 0.7225724
000030 f7 90 10 3f f6 41 6d 3f 10 58 57 3f fb 1f 24 3f
       0.564712 0.92678773 0.8411875 0.641113
000040 eb 70 45 3f 41 01 58 3f 41 0a 6d 3f 8d b4 04 3f
       0.77125424 0.84376913 0.9259377 0.51838
000050 58 18 2f 3f 89 1c 22 3f ab d4 24 3f 43 d1 78 3f
       0.6839652 0.6332479 0.64387006 0.9719431
000060 60 b8 47 3f 5e 0a 9f 3f db 71 33 3f ef 4e 28 3f
       0.7801571 1.2425039 0.70095605 0.65745443
000070 34 c7 41 3f 1d 3f 2f 3f 49 68 2c 3f c9 86 3c 3f
       0.75694585 0.6845568 0.67346627 0.73643166

decoder.up_conv_2.conv.weight f4 [16, 3, 3, 32]
000000 3a 80 7c bd 10 07 b6 be a1 66 6e 3d 0d 09 ad 3c
       -0.061645724 -0.35552263 0.058203343 0.02112248
000010 e8 f6 c8 bd 6d 78 4f be 60 23 d7 3c f7 27 1d be
       -0.09812719 -0.20260783 0.026261985 -0.15347277
000020 f0 5b 3c 3c 7f ed e2 3d 8a d6 a7 3c fa fe cc bc
       0.011496529 0.11080455 0.020488042 -0.025023926
000030 34 5d 5b 3e e2 37 b8 bc cd 3e 39 3e e3 1d a8 bb
       0.21422273 -0.022487585 0.18090363 -0.005130516
000040 b9 3b 51 bb c0 1a 04 be b0 03 8f 3c 6b d1 83 bc
       -0.0031926467 -0.1290083 0.017457813 -0.01609107
000050 bb 5b 30 3c 66 f5 13 3e f1 24 0b 3e c2 96 8b 3e
       0.010764058 0.14449081 0.13588311 0.27263457
000060 a5 89 81 bc 2f cb 1c be f7 b2 ba be 41 c9 1b be
       -0.015812704 -0.15311883 -0.36464664 -0.15213491
000070 0b fc d2 3d c1 78 1a be 8b 0e a5 3c 3b e0 87 3d
       0.1030198 -0.15085126 0.020148536 0.066345654
000080 15 11 bb bd c6 67 23 be cf 39 3f 3d f1 08 fc bd
       -0.091341175 -0.15957555 0.04668599 -0.12306393
000090 5e a1 47 be a2 db 3b be 68 2c a6 bd db 57 02 be
       -0.1949515 -0.18345502 -0.081139386 -0.12728827
0000a0 e7 4e 8d bd 6d e0 08 be d9 aa 82 bc 36 9b 6b be
       -0.06899815 -0.13366862 -0.015950607 -0.23008427
0000b0 76 02 fd bb d1 23 f9 3c 02 13 2c 3e 75 cc e3 bc
       -0.0077212406 0.030412586 0.16804126 -0.027807454
0000c0 69 17 6e 3d 80 65 27 be e0 fa d5 bd 89 2c 6a bd
       0.058127794 -0.16347313 -0.10448241 -0.05717138
0000d0 fb ca 65 bd a5 0c c2 bc 39 9e 8c 3d 47 83 75 3e
       -0.05610178 -0.02368767 0.06866116 0.2397586
0000e0 32 de 81 3d 22 9b 4d 3d 6e a6 c3 be be 79 12 be
       0.063412085 0.050196774 -0.38212913 -0.14304253
0000f0 ff e3 e3 bd 7e cc 16 bd fe 38 7c 3d 68 96 8a 3d
       -0.11127471 -0.036816113 0.06157779 0.06766969
000100 f8 5c 4e bd 7b a6 c4 bd 88 41 cc 3d 47 f5 61 be
       -0.05038163 -0.09602066 0.099734366 -0.22066222
000110 e4 69 05 3c 75 07 bf bd d8 1c 86 bd 03 4b ee 3d
       0.008142922 -0.09327594 -0.0654847 0.11635401
000120 a7 b7 3e bc 60 c5 ba bd 95 bf 55 3c 09 a5 81 bd
       -0.011640466 -0.091196775 0.013046165 -0.06330306
000130 7d 68 a7 3d 11 37 a4 bd d6 f1 67 3c cb 24 97 3c
       0.081742264 -0.080183156 0.014156779 0.018450161
000140 e1 73 fb 3d f5 48 28 be a0 ab 71 3d cf 93 be 3d
       0.122779615 -0.16434081 0.059001565 0.09305536
000150 35 82 32 bc a1 0f 90 3d 27 08 1f 3e da 3e 87 3e
       -0.010895302 0.07034231 0.15530454 0.2641514
000160 79 4e 3c bd ce e1 d0 3d 16 fc 9e bc e2 10 49 be
       -0.045973275 0.10199319 -0.019407313 -0.19635347
000170 2f a4 51 bb 6c 88 0c 3e fb 33 08 3e ff 0d 48 3e
       -0.003198873 0.13723916 0.13301079 0.19536589
000180 99 f1 03 be 79 9e 62 be 4c 49 c8 3c 5f de b4 bc
       -0.12885131 -0.22130765 0.024449013 -0.022078691
000190 e4 53 6c bd 58 db 99 be c3 38 f5 3c d9 54 df bd
       -0.05769719 -0.30050159 0.029934293 -0.10904855
0001a0 50 5a d0 bd e4 cd 0f 3e a4 af 63 3d 86 13 2b bd
       -0.10173476 0.14043385 0.055587426 -0.041766666
0001b0 46 01 65 bd e0 ca 9b 3d fb 3e f9 3d e2 61 e7 3d
       -0.055909418 0.07607055 0.12170216 0.112979665
0001c0 36 a0 34 bc e3 c8 6a be b0 06 0d bd 2a 69 6a be
       -0.011024525 -0.22928195 -0.034430206 -0.2289168
0001d0 eb e5 a5 bd 1d d8 b0 3d 21 6a 1a 3e 8f 76 ce 3d
       -0.08100494 0.0863497 0.15079547 0.10081207
0001e0 19 11 03 39 5c 82 f0 bd 87 b8 fa bd a6 e9 9e be
       0.00012499503 -0.11743614 -0.12242227 -0.31037635
0001f0 5f a2 e1 b9 46 03 7d be 9a a1 a5 bd dd e0 48 3c
       -0.0004303632 -0.2470828 -0.08087464 0.012260643
000200 12 e0 56 be a3 d1 49 bd cd 51 2f 3c ab c4 bb bd
       -0.20983914 -0.04927219 0.010700655 -0.09168371
000210 9c 41 c1 bd 8a 5c a9 be 75 e3 61 bd 5e ab da bd
       -0.09436342 -0.33078414 -0.05514856 -0.10677217
000220 1e b8 b0 bd 9d 8b 33 3d 9e 91 bf bd f5 7f 73 be
       -0.086288676 0.043834317 -0.09353946 -0.2377928
000230 63 34 2f be 40 65 27 3e 46 e2 37 3e 77 6a eb 3c
       -0.17109828 0.16347218 0.1795741 0.02873729
000240 7e c5 26 bd d2 ca 5d be d4 f5 66 bd fc 99 1e be
       -0.040715687 -0.21659401 -0.056386784 -0.15488428
000250 ac f0 bb bd f7 0d 73 bd 86 21 a7 3d 1c 85 b2 3d
       -0.09176764 -0.05933949 0.08160691 0.08716795
000260 3a 19 cb 3d 89 04 b3 3d 4e c9 3d be 7a 2a 7e be
       0.09916921 0.087410994 -0.18533823 -0.24820891
000270 3b 05 cb bd 6d 45 38 be 36 cd 06 bd 35 2f 0e 3d
       -0.09913107 -0.17995234 -0.03291055 0.03471299
000280 61 31 04 be 58 47 12 be 87 87 a5 3d b3 1c 44 bd
       -0.12909462 -0.14285028 0.080824904 -0.047878932
000290 ce 86 b5 bd f0 fc 8e be e2 43 53 bd 8b cd 66 bd
       -0.088636026 -0.2792735 -0.05157841 -0.056348365
0002a0 e2 bd b3 bd 7b 5a 96 3d f3 73 f1 bc ae df 44 be
       -0.08776452 0.073414765 -0.029474234 -0.19225952
0002b0 6b e7 bb bd bd 0d 66 3d 46 74 e3 3c a1 17 72 3d
       -0.09174999 0.056165446 0.027765404 0.059104566
0002c0 99 1c 0d 3e 01 42 07 be 21 69 4e 3e 89 4f d6 bd
       0.1378044 -0.13208772 0.20157291 -0.10464389
0002d0 a1 d5 26 be af b7 a7 bc b1 3b 4d 3d 36 fe 0d 3e
       -0.1629243 -0.02047333 0.050105754 0.13866505
0002e0 2b 17 38 bd bc f5 39 3c 0c f9 06 bd 37 29 77 be
       -0.04494397 0.011350092 -0.032952353 -0.24136816
0002f0 88 1e ea bd 96 d2 78 bd 46 a4 26 be ec b2 00 3e
       -0.114316046 -0.060747705 -0.16273603 0.12568253
000300 33 b8 35 bd f7 aa 87 bd c1 06 82 bb ed 6b ca bd
       -0.04436512 -0.06624406 -0.0039680903 -0.098838665
000310 5a 4a 31 3d 12 08 24 be 41 6f 72 3d cb 32 85 bd
       0.043283798 -0.16018704 0.05918813 -0.065038286
000320 a4 1a 2d bd 40 40 42 3e 7e a1 e2 3d 84 b4 13 3e
       -0.042261735 0.18969822 0.110659584 0.1442433
000330 39 01 cf bc dc dd 2a 3e 2e fc df 3d 64 16 d3 bc
       -0.025269138 0.16686195 0.10936771 -0.025767513
000340 d3 6f 68 bd 4d 4d d3 bc cf 7b c0 3d 9a 97 0c be
       -0.05674727 -0.025793696 0.093986146 -0.13729706
000350 32 4b 8a 3c 8a 27 3a 3d c3 c3 5a bc b4 c0 26 3e
       0.016881559 0.045447864 -0.013352337 0.16284448
000360 34 97 97 3c bd ef 7c be 8a 80 b4 3c 01 03 01 be
       0.018504716 -0.24700828 0.022033948 -0.12598802
000370 bd f8 3e bb b9 7c 28 be a1 5a 44 3c 46 82 2c 3d
       -0.0029139959 -0.16453828 0.011984498 0.042116426
000380 dd 45 73 be a9 06 0b 3c 3f cb 99 3d 56 69 0c be
       -0.2375712 0.008485475 0.07509469 -0.13712057
000390 5c 31 da bd a9 ff ba be b9 7e 32 3d 93 f8 19 be
       -0.10653946 -0.36523178 0.043577883 -0.1503623
0003a0 c3 c1 b4 bd d9 76 89 3d 89 9f c4 bc fd ba 9b bd
       -0.088260196 0.067121215 -0.024001854 -0.076040246
0003b0 7c af 6e be 7e 1c 94 3d 06 c7 36 3d 67 2f 6f bd
       -0.2330913 0.07231997 0.044623397 -0.058394816
0003c0 16 8e 88 bd 25 5b 20 be be af 8e 3a e5 0f ad bd
       -0.06667726 -0.15659769 0.0010886115 -0.08450297
0003d0 f2 78 9c bd d3 95 7f 3d 2b 9f 04 3c d5 a4 cd 3d
       -0.07640256 0.062398743 0.008094589 0.10041205
0003e0 8a 37 7c 3d ee 07 f0 bd b5 df 40 3d 71 7b a1 bd
       0.061576404 -0.117202625 0.047088344 -0.07884873
0003f0 80 58 bf bd 75 eb 63 be 12 11 df 3c 0a b4 b7 b9
       -0.09343052 -0.22257788 0.02722982 -0.0003503862

decoder.up_conv_3.conv.bias f4 [3]
000000 00 40 55 3e 7c 16 c6 bd 53 c1 e4 bb
       0.20825195 -0.09672257 -0.006981054

decoder.up_conv_1.conv.bias f4 [32]
000000 6b 4b 64 3d 2c b5 91 bd 25 a3 e9 3d 9f 7e 0f be
       0.055735987 -0.07114634 0.114080705 -0.14013146
000010 de 51 d6 3a 84 5e ce 3d 9e d9 66 3d 9a 20 f4 3d
       0.0016351303 0.10076621 0.05635988 0.11920281
000020 22 1a c0 bd 9d 8f 4a bd e0 8e 5e 3d 92 55 54 bd
       -0.093799844 -0.049453367 0.054335475 -0.05183942
000030 8d 4f 03 bc 81 16 21 be c9 d4 8f 3d d3 b9 7f 3e
       -0.008014572 -0.15731241 0.070230074 0.2497323
000040 27 d8 44 be f6 19 61 be 8e f1 5f 3d 5a f7 76 be
       -0.1922308 -0.2198256 0.054673724 -0.24117795
000050 5a 2b 08 3d ca 8d 55 3d c6 50 09 be 3b 98 cb 3d
       0.03324447 0.052137174 -0.13409719 0.09941145
000060 1b 78 ed bc 5d 2c 0e 3d 67 30 4a 3e 49 07 c2 bd
       -0.028987935 0.034710277 0.19745027 -0.09474046
000070 53 3a a4 bc 24 68 9c be aa 12 52 be 8b a9 22 bd
       -0.020047342 -0.30548203 -0.20514932 -0.03971247

decoder.lin1.bias f4 [4096]
000000 63 ab 36 bf ac 09 1d 3f 55 57 3f 3f 5a 7d c6 3e
       -0.71355265 0.61342883 0.74742633 0.3876751
000010 62 a6 38 bd 85 e9 6c bd e6 50 23 bf 9a 3a 25 be
       -0.04508055 -0.05783989 -0.63795316 -0.16135636
000020 ae be f6 bc e6 3c 73 bf 16 cf 8c be 53 ad 17 bd
       -0.03012022 -0.950148 -0.27501744 -0.03703053
000030 1a 12 3f bf b9 5c c7 be 06 a3 a9 bd 76 63 8f 3d
       -0.74636996 -0.3893793 -0.082830474 0.070013925
000040 d5 d6 85 3d 82 90 19 be fc fa be 3d 98 4b 42 3f
       0.065351166 -0.14996532 0.09325215 0.75896597
000050 d5 2f 81 bb bb ed 53 3d 47 62 e0 3e 41 41 59 be
       -0.0039424696 0.05174039 0.4382498 -0.21216299
000060 a2 4c 2c 3d 0e ba 0e 3c e9 2d 9b 3e ce a6 88 be
       0.04206527 0.008711351 0.30308464 -0.26689762
000070 82 20 30 be 30 8d 83 be b6 24 a3 3e 22 f0 ca 3e
       -0.17199901 -0.25693655 0.31863946 0.39636332
000080 f6 6f 83 3d ec 37 b4 3e 88 d6 c9 be dd 0d 8a be
       0.06417839 0.35198915 -0.39421487 -0.26963702
000090 99 4b c4 be 67 0e c4 be ee 0a 33 3f f8 93 11 3f
       -0.38338926 -0.38292238 0.6993855 0.5686641
0000a0 69 33 3d bf fe 69 6e be 33 ac 70 bf 32 5f a0 3e
       -0.7390657 -0.2328262 -0.94012755 0.31322628
0000b0 29 29 bd 3e 38 2a 1a 3f fe c0 e3 bd 3b a4 12 be
       0.36945465 0.6022067 -0.11120795 -0.14320461
0000c0 a4 e6 02 3f 65 97 aa bc ad a6 06 3e 31 28 36 3e
       0.5113318 -0.020824144 0.1314952 0.1778877
0000d0 95 50 e2 be 8c 13 36 be 2f 28 9a 3d 05 03 c0 3d
       -0.44202104 -0.17780894 0.07527196 0.09375576
0000e0 6b 87 28 3f c6 bd 87 3b 70 1a 09 3f a0 0d 3b 3e
       0.6583163 0.004142496 0.53555965 0.18266916
0000f0 4d 6e da be d3 de bd be 43 00 9f 3d d4 7a ea be
       -0.42662278 -0.37084064 0.07763722 -0.45796835
000100 ce 2c d1 be cd ef fe 3e cb 08 ac be ea de 80 3e
       -0.40854496 0.49792328 -0.33600459 0.2517007
000110 23 9c a7 3e 94 3a 8b be ef d4 58 3e df b9 a2 be
       0.3273631 -0.2719313 0.21174978 -0.31782433
000120 d3 69 9e 3e 4e 5a be 3c 8f 26 46 bc f0 58 60 3d
       0.30940112 0.02323642 -0.012094154 0.054772317
000130 5e 7e a1 be 08 d1 35 be 36 52 a9 bd d9 db 99 3d
       -0.31541723 -0.1775552 -0.082676336 0.07512636
000140 c1 bd 95 3e 22 69 26 be 45 e7 57 bd 3c 7f 3d be
       0.29246333 -0.16251042 -0.05271079 -0.18505567
000150 60 3a 22 3d 07 c1 97 be d8 64 c0 3e d1 cd 72 3d
       0.039606452 -0.29639456 0.37576938 0.059278313
000160 71 b6 c8 bb 7a 6c 94 bd 55 1f ac bd 4f c2 b0 be
       -0.0061252643 -0.07247253 -0.084044136 -0.34523246
000170 bd 1b 98 3d f0 40 24 be e2 35 a2 bd 6e 07 6d bd
       0.07427166 -0.16040397 -0.079204336 -0.057868414
000180 2c 09 8d bd e8 ef 0c be 10 cd d2 be c6 8c 3c bf
       -0.06886515 -0.13763392 -0.41172075 -0.73652303
000190 59 98 ac 3e cd 7a b3 be f4 1d 9f be 74 e8 62 be
       0.33709982 -0.35054627 -0.3107754 -0.22158986
0001a0 93 18 70 bd 7a b6 b0 3d ac a0 13 be 96 91 54 3e
       -0.058617186 0.08628555 -0.1441676 0.20758662
0001b0 81 a6 c8 3c 93 ae b8 3d 4d e2 a2 be e1 08 d7 3e
       0.024493458 0.090176724 -0.3181328 0.41998962
0001c0 2d 61 3d be 30 60 99 3b df 46 a1 3d e2 6c 7b be
       -0.18494101 0.004680656 0.07874846 -0.24553254
0001d0 16 57 2d be 86 94 1d 3f ba e8 85 3d 6a db 01 be
       -0.16927752 0.61554754 0.0653853 -0.12681356
0001e0 55 60 3b be 66 24 66 3e 37 11 80 3c 20 e0 b5 be
       -0.18298467 0.22474822 0.015633209 -0.35522556
0001f0 93 eb 92 3e 3e 06 10 3e 54 25 9f bd d4 4b 21 3d
       0.28695354 0.14064881 -0.07770792 0.039378956
000200 ad d3 87 bd 4c 8f 66 be 3e bf 30 3e 69 c3 b2 3d
       -0.06632171 -0.22515601 0.17260453 0.08728678
000210 e1 b5 4b be cf 4c 6d 3d 0e 64 3b bd 98 de 60 3d
       -0.198936 0.05793458 -0.045749716 0.054899782
000220 a2 c8 e5 bd 32 f6 0b 3c 4c 2e 10 be ff f0 fc 3d
       -0.11219908 0.008542584 -0.14080161 0.12350654
000230 6c d3 94 be 8f 34 79 3d 8c ee 00 be e3 5d be bc
       -0.29067552 0.06084114 -0.12590998 -0.023238128
000240 6f c7 c7 3e 8e 0c 88 be 58 a4 63 be 33 9b 13 be
       0.39019343 -0.26572078 -0.22230661 -0.14414673
000250 af 8d c6 3d 11 5e f5 be 3b ef ae 3d fc 94 b2 be
       0.09694993 -0.4792333 0.08541723 -0.3487929
000260 bd 69 11 3d c3 89 c3 bd 82 5e d2 3d 52 47 27 3d
       0.03550123 -0.0954776 0.10271932 0.0408395
000270 ec 0d 88 bd 10 26 10 be 9a 5f c6 3d 09 28 cd 3d
       -0.066432804 -0.1407702 0.09686203 0.10017402
000280 f3 99 27 3e d0 13 9f 3d 1e d5 ef bc 10 2d b6 bd
       0.1636732 0.07767451 -0.029276427 -0.08895314
000290 42 e0 5d bd 48 7b e2 be ac 23 5c be 7c 02 7d bd
       -0.054168947 -0.4423468 -0.21497983 -0.061769947
0002a0 a4 42 97 3b a8 ff 27 3e 24 3d d0 3d e2 2f a8 3e
       0.0046160985 0.16406119 0.10167912 0.32849032
0002b0 99 02 5a 3d 56 86 b0 bb 9e 1f d2 bc 77 8f dd 3e
       0.053225134 -0.005387108 -0.025649842 0.43273517
0002c0 bc 42 87 3e f1 8e 1f 3e 06 0e 45 bd e2 d5 51 be
       0.26418102 0.15581872 -0.048109077 -0.20491746
0002d0 09 10 96 3e c8 ac 7c 3d f8 0c c2 3e b7 d8 6d be
       0.2930911 0.061688215 0.3790052 -0.23227201
0002e0 b5 2c cc 3c 86 c8 09 be 26 bc fd bc cf d2 d3 3d
       0.024923662 -0.134554 -0.030973505 0.10342943
0002f0 2e bd 38 3f 9d 5e 62 3e 0c 3d 81 3e a4 26 de bb
       0.72163665 0.22106405 0.25241888 -0.0067795087
000300 f8 b7 88 3e 89 ca 9a bd bc ab 58 3e fd 26 36 3e
       0.26702857 -0.07558162 0.21159261 0.1778831
000310 39 69 c3 bd 20 b0 07 be 02 8f 9b 3e fc f1 71 be
       -0.09541554 -0.1325078 0.30382544 -0.23627466
000320 d5 95 22 3e 8d 2b a4 bc 32 a7 07 be c8 20 88 3e
       0.15877469 -0.020040298 -0.13247374 0.2658751
000330 f7 7f e1 be 77 1b 84 3e 18 a7 9e 3d ee 1d f1 bd
       -0.44042942 0.25802204 0.07746714 -0.11773287
000340 1a 6f 37 3e f9 20 4b 3e 66 b5 0d be ff cc 06 3e
       0.17913476 0.19836797 -0.1383873 0.13164137
000350 10 74 6e 3d 77 3e 02 be c2 2a 0c 3e 9b e0 83 be
       0.058216155 -0.12719141 0.13688186 -0.25757298
000360 ac 9c 54 3c 62 a0 10 be d0 2a 99 3c 85 89 98 be
       0.012976807 -0.14123681 0.018697172 -0.2979242
000370 65 83 dc 3c d6 15 3b 3e 6e 3e 6a be 41 dc 29 be
       0.026918123 0.18270048 -0.22875378 -0.16587926
000380 93 5b 68 3e 47 75 9a 3d 0f c7 b6 bd f9 1e 05 bf
       0.22691183 0.075419 -0.08924686 -0.52000386
000390 e5 9d aa 3d d5 00 4d bd c6 72 c2 bd a3 3d e2 bd
       0.08330897 -0.05004962 -0.094945475 -0.110469125
0003a0 9c 4d 94 3e 81 e9 22 3d d6 a0 fd 3d d6 83 ad 3e
       0.2896546 0.039773468 0.12384193 0.33889645
0003b0 ba ba 11 3e 89 e0 e0 bd b3 b1 39 bd ad ce 4f bc
       0.14231387 -0.10980327 -0.045335483 -0.012683553
0003c0 63 f5 89 be f5 1d b7 3c 25 44 b5 3d 2a c5 e6 bd
       -0.26945028 0.022353152 0.08850888 -0.11268075
0003d0 79 d3 24 bd 64 bb a1 3e ef 4d 74 3e ce a1 05 be
       -0.04024074 0.3158828 0.23857854 -0.13050005
0003e0 79 48 e9 b9 0e 5b cf be c2 49 24 be 68 5b ec bd
       -0.0004449522 -0.40499157 -0.16043761 -0.11540872
0003f0 c8 07 fc 3e 10 6f 1c 3d 38 72 98 3e bd 59 83 be
       0.49224687 0.038191855 0.29774642 -0.25654402

decoder.lin1.weight f4 [4096, 8]
000000 4f 77 3d 3e c6 08 12 3e 5c a8 08 bf f5 cf 24 3e
       0.18502544 0.1426116 -0.53381896 0.16094954
000010 6c e2 8a 3e 36 cb b3 be 6b c6 bc 3e b0 ca 81 be
       0.2712587 -0.35115975 0.3687013 -0.2534995
000020 ee 33 a8 3d 00 4f 0a 3f d0 73 8a be 61 68 6e 3d
       0.0821303 0.54026794 -0.27041483 0.058205012
000030 0f fa 22 be 7c db 70 3e 8a 91 20 be a4 16 14 3c
       -0.15915702 0.23521227 -0.15680519 0.009038601
000040 6b e1 ef 3d b4 e9 b5 3a ea c1 01 be d1 14 86 3d
       0.11712917 0.0013878853 -0.12671629 0.06546939
000050 fd 92 b3 bd ee 02 3f 3d 65 a3 fc bc 48 40 03 3e
       -0.0876827 0.046633653 -0.030839631 0.1281749
000060 57 c0 4a be e4 ec 3c 3d 22 b1 8e 3d 2f 86 b1 be
       -0.19799934 0.046124354 0.06967379 -0.34672686
000070 26 74 21 bf 53 2c c3 bd f2 b4 b0 be 4a 47 cc 3e
       -0.63067853 -0.095299385 -0.3451305 0.3989814
000080 4b bf af be 42 36 d1 bd 0e 3d 3e 3f 01 a5 86 3c
       -0.34325632 -0.10215427 0.7431191 0.016436102
000090 16 65 c3 be 73 ee 0c 3e 0b 74 44 bf 5f 65 51 be
       -0.3816306 0.13762836 -0.7673957 -0.20448826
0000a0 9f c0 c3 3e 30 fd f8 bd 94 aa 4a be ac fa 6e bd
       0.38232896 -0.12157667 -0.19791633 -0.058344528
0000b0 f2 44 6b 3e b6 6a ab 3e 2d 86 23 bd 7c b2 06 3b
       0.2297552 0.3347985 -0.039922882 0.0020553162
0000c0 5d f8 13 be 84 61 a8 be 08 35 8c bb f5 1c 19 be
       -0.14450212 -0.328869 -0.0042787828 -0.14952452
0000d0 c4 58 bc be c4 51 99 3d 5b 56 bc 3d 3a 0e 9e be
       -0.36786473 0.07486299 0.091961585 -0.3087023
0000e0 7d b1 c5 3e f4 99 56 3d cb 8f 3c bf 60 56 91 be
       0.38611975 0.052392915 -0.7365691 -0.2838621
0000f0 54 03 18 3d fc ac c1 3e 5f 66 ba 3e f1 b7 93 3e
       0.03711255 0.3782729 0.36406228 0.28851274
000100 b3 af a4 3d 81 6f 97 be 59 dc 16 be 6d 92 13 3e
       0.080413245 -0.29577258 -0.14732493 0.14411326
000110 cc d6 23 3e 40 ff fb 3d 2b 9d 8a 3d fc 88 8e 3d
       0.15999907 0.123045444 0.06768259 0.069597214
000120 32 3a 94 3e 51 10 73 3d c1 d5 0f 3f 02 8d 4e 3e
       0.2895065 0.059341732 0.5618554 0.20170978
000130 65 43 c1 bd da ca c4 be f8 3f 7d 3d 10 c2 2a be
       -0.094366826 -0.38436013 0.061828583 -0.16675591
000140 99 3e e7 bd 5d 29 79 3e 70 ab 96 3d e5 07 f4 be
       -0.112912364 0.24332185 0.07356918 -0.47662273
000150 fa f3 66 be 5a c5 9f be bc 11 72 3e 6a 1f 6e be
       -0.22554007 -0.31205255 0.23639578 -0.23254171
000160 c5 fb d7 be 6c 57 8f be 2e 25 3d 3e 4c 1b ad 3e
       -0.42184272 -0.27996385 0.18471214 0.33809888
000170 cc 24 f4 3d e5 34 ce 3e da 5c 0d bf 7e a1 1d be
       0.11921081 0.4027473 -0.55219805 -0.15393636
000180 cd a8 5f bd b9 b4 61 3d 01 01 0e 3e 35 e6 12 bf
       -0.05460434 0.05510399 0.1386757 -0.5738252
000190 21 92 86 3d 2b 12 2a 3e dd af 02 3e c5 70 df 3e
       0.065708406 0.16608493 0.12762399 0.43640724
0001a0 0b b8 8f 3e 23 30 1c bd 6d 83 7d 3e a3 f3 9e be
       0.280701 -0.038131844 0.24757166 -0.31045255
0001b0 50 ad ac bd 2e 59 22 3e 3e cd 24 3e 00 37 a8 3e
       -0.08431494 0.15854332 0.16093919 0.32854462
0001c0 8e c3 43 be d2 a3 92 be e0 82 6a 3d b9 ec 1a 3e
       -0.19117567 -0.2864061 0.05725372 0.15129365
0001d0 e9 5b 98 3d 81 90 9b be 1c 14 48 bd 5e e2 43 bd
       0.074394055 -0.30383685 -0.048847303 -0.047823302
0001e0 9f 9e ae be 9c cb ae be f2 c8 77 bd c1 8b 81 3e
       -0.34105393 -0.34139717 -0.06049437 0.25301936
0001f0 15 ca 21 3e 1f 1c f5 3d 2a 50 f2 bc dc d0 52 be
       0.15799744 0.11968254 -0.02957924 -0.20587486
000200 da 47 97 be 28 a9 1b 3f ad 37 ac 3d ea 6f 33 bd
       -0.29547006 0.60804987 0.08409057 -0.0438079
000210 56 c3 66 bd 46 7c 58 3e b5 7d 76 be c5 d6 99 be
       -0.05633863 0.21141157 -0.24071391 -0.3004667
000220 69 10 8d be 50 f9 85 bd cb 54 90 3d ab 1c d6 3c
       -0.27551582 -0.06541693 0.07047423 0.026136717
000230 a7 4f c2 be ae d4 35 be 8d d2 8b bd a9 89 2e bd
       -0.37951395 -0.17756912 -0.06827269 -0.04261175
000240 f0 b8 df 3e 9e 2c 09 be 25 d2 8f be fe da c5 b8
       0.43695784 -0.13395926 -0.28090015 -9.4344825e-05
000250 fb 04 ee 3d e8 b1 74 bd 8b 77 78 3e 73 29 b9 3e
       0.11622044 -0.059739977 0.24264352 0.36164436
000260 aa ec 73 bd 04 1b b8 3d 02 7e b8 bd d4 35 4f be
       -0.059551872 0.08989528 -0.09008409 -0.20235378
000270 d7 32 52 be b4 bb cd bd 4b cc b4 bc 64 94 23 3f
       -0.20527206 -0.10045567 -0.02207007 0.638983
000280 26 d0 87 be b3 08 b8 3d fb 3d 1e be 56 b7 a2 3d
       -0.26525992 0.08986034 -0.15453331 0.07945125
000290 b7 f3 a8 be 6c fd 85 be 5f e9 c2 3e 64 a1 ef 3c
       -0.3299844 -0.26169908 0.38068673 0.029251762
0002a0 44 d6 81 bc 84 fd f9 3e 08 e1 90 be 98 b4 b3 be
       -0.01584924 0.4882623 -0.28296685 -0.3509872
0002b0 c4 48 a2 bc dc 85 45 3e b1 77 85 be e7 4c f6 3d
       -0.019810088 0.19289345 -0.2606788 0.12026387
0002c0 6e a5 32 3e 0a ec 2c be b1 8d 7b be b1 aa bf 3c
       0.17445919 -0.16886917 -0.2456577 0.023396822
0002d0 2e e1 98 be db d1 26 be 3e 2a 34 3d d2 cf 36 3e
       -0.29859298 -0.16290991 0.043985598 0.17852715
0002e0 eb a3 da 3d 3d 77 c5 bd bd 72 81 3d 9f 52 f5 3d
       0.10675796 -0.096418835 0.06320713 0.11978649
0002f0 cf 13 b3 3e 66 88 88 3e 36 95 7c 3d e0 18 af be
       0.3497605 0.26666564 0.061665736 -0.34198666
000300 b2 15 94 bd c2 18 36 bd b9 58 9b 3c 39 59 0e be
       -0.072307006 -0.044457205 0.018963205 -0.13901223
000310 10 35 cb 3e 58 b1 cc 3d c0 80 87 be 70 cc d6 bd
       0.3968892 0.09994763 -0.26465416 -0.10488212
000320 7e 86 02 bf ee be 98 3e 5d 22 3b 3e f7 09 4d be
       -0.5098647 0.29833168 0.18274827 -0.20023333
000330 9b 5f 1b bf eb 4d 36 bd 7c 38 06 be 03 1d bd 3e
       -0.6069276 -0.044507902 -0.13107485 0.36936197
000340 ec 90 95 3e 51 00 c8 3e 4d b6 7a 3c bc 29 e0 be
       0.2921213 0.3906274 0.015302253 -0.4378184
000350 78 9a cc 3c 4b 1c 2e bd e0 5f 0a be 44 3c 47 3f
       0.024976 -0.04250745 -0.13513136 0.77826333
000360 fd 2c 7e be 80 35 0b 3e d9 30 a2 3e e4 4d d6 3d
       -0.24821849 0.13594627 0.31677893 0.10464075
000370 15 70 b8 be 55 e3 c5 bd 78 f7 b1 be e2 b7 93 3e
       -0.36023012 -0.09662501 -0.34759116 0.2885123
000380 06 b3 e0 3d 7f 09 eb bc ca 37 a9 3d 17 2a 33 3e
       0.10971646 -0.028691052 0.08262594 0.17496525
000390 82 fd d7 3d 31 69 15 3f 55 d2 6d 3c 4d 46 a2 bb
       0.105464 0.58363634 0.014515479 -0.004952228
0003a0 d0 0a 5e 3d 91 3b 53 be 8b 5f 21 bf ad 2d 38 3e
       0.05420953 -0.20628192 -0.6303641 0.17986174
0003b0 24 96 81 3e fa b0 6e be 98 35 95 be 4f 6a 86 be
       0.2530986 -0.23309699 -0.2914245 -0.26252982
0003c0 ec ea c5 3d d5 ed 57 be 4e d6 ad 3d 9a e5 97 bd
       0.096639484 -0.2108682 0.08488141 -0.0741684
0003d0 77 a3 5f be 9f 38 52 be 6c d5 3c 3e c7 6a cb 3e
       -0.218397 -0.20529412 0.18440789 0.39729902
0003e0 2f eb 04 be 57 45 76 be 2b 33 3c be d8 9e 57 bd
       -0.1298034 -0.24049889 -0.18378894 -0.05264172
0003f0 27 e3 4a bd 94 67 f6 3d 1c 35 90 bc 44 65 2e be
       -0.049533036 0.12031475 -0.01760345 -0.17030817

encoder.batch_norm_3.bias f4 [64]
000000 98 69 48 be 71 00 78 be f7 ae 81 be 4c 53 84 be
       -0.19571531 -0.24218918 -0.253288 -0.258448
000010 ff 24 a7 be 5a 05 75 be 2b 9a 47 be 05 85 22 be
       -0.32645413 -0.23927823 -0.19492404 -0.15871055
000020 8a c9 77 be 64 5c 62 bd bb f2 60 be 05 a0 87 be
       -0.24197975 -0.05526389 -0.21967594 -0.26489273
000030 d0 7a 8e be e1 ca a9 be 02 ff 63 be 3b 65 81 be
       -0.27828074 -0.33162597 -0.22265247 -0.25272545
000040 8b f9 8a be 92 65 80 be a1 75 66 be de 24 9e be
       -0.2714351 -0.25077492 -0.2250581 -0.30887502
000050 28 23 99 be a7 f0 80 be 2c d0 80 be 4b 40 89 be
       -0.29909635 -0.25183603 -0.25158823 -0.26806864
000060 b5 46 59 be 34 94 a7 be 5f 74 94 be 51 6c aa be
       -0.21218379 -0.32730258 -0.28995034 -0.33285764
000070 ab fc 46 be 7a 23 94 be 49 ae 40 be 9f fb fe bd
       -0.19432323 -0.28933316 -0.18816485 -0.12450337
000080 c9 0a 80 be 9c 50 90 be b6 d6 60 be 03 ae 12 be
       -0.25008228 -0.281865 -0.21956906 -0.14324193
000090 16 b5 7a be fd 57 76 be 4a 4e 19 be ab a0 73 be
       -0.24483141 -0.24057002 -0.14971271 -0.23791759
0000a0 47 58 97 be 06 17 a4 be 6c 20 81 be e1 eb 7f be
       -0.29559538 -0.32048815 -0.25220048 -0.24992324
0000b0 30 93 a8 be 40 7d 4e be 64 c0 a7 be ff 75 92 be
       -0.32924795 -0.20164967 -0.3276397 -0.2860565
0000c0 d1 e1 81 be 2d a4 90 be b3 65 b6 be 1b 53 87 be
       -0.25367597 -0.28250256 -0.35624465 -0.26430592
0000d0 0d ad 4f be 92 92 56 be 3d 72 96 be 7d bb b3 be
       -0.20280857 -0.2095435 -0.29384032 -0.3510398
0000e0 45 2e b1 be 5b ed a3 be f7 d9 9e be 53 60 5e be
       -0.34605613 -0.32017025 -0.3102567 -0.21716432
0000f0 c5 a2 92 be 5e 5c 5f be 14 ca 8d be f7 06 7f be
       -0.28639808 -0.21812579 -0.27693236 -0.24905

encoder.batch_norm_2.running_mean f4 [32]
000000 2c ef 42 bf 7d 77 a1 3f 4b 86 c0 3d 19 3a 23 3e
       -0.761462 1.261459 0.09400614 0.15940131
000010 23 23 21 bf 8d 71 4e bf a6 b5 c6 bf cb 09 27 bf
       -0.6294424 -0.80642015 -1.5524185 -0.6524932
000020 49 fb 91 3e fa 51 ae 3f a4 0a 53 3f 5c 45 00 3f
       0.28512028 1.3618767 0.8243811 0.50105834
000030 ba 71 35 3f be eb 7a be 9c 0e fc 3f 0a df a8 3c
       0.7087666 -0.24503991 1.9691958 0.020614166
000040 a0 6b 8a 3e cc 2b 89 3e a3 41 cc be d6 28 c0 be
       0.27035236 0.26791227 -0.39893827 -0.37531155
000050 44 f0 11 40 82 59 5a 3d 26 c4 8a 3f b5 a3 14 c0
       2.2802896 0.053308018 1.084111 -2.322492
000060 c8 60 00 c0 6b fb 91 bf 4e 9b 9a 3d 9f a4 05 c0
       -2.005907 -1.1404852 0.07549153 -2.0881727
000070 24 41 a4 be 6d 15 c1 bf b1 17 64 be cf 04 a4 bf
       -0.32080948 -1.5084664 -0.22274663 -1.2813967

encoder.proj_log_var.weight f4 [8, 4096]
000000 a8 df 0e be c7 51 68 3e c1 3b 42 bb b7 61 9a 3e
       -0.13952506 0.22687446 -0.0029637667 0.30152676
000010 96 cd b0 3d 9a f9 ed bc 7b 56 89 3d 82 bc 58 be
       0.086329624 -0.029049683 0.06705948 -0.2116566
000020 2c 2e 28 be 28 50 b2 bd 53 e2 2a bd 63 58 8c 3e
       -0.16423863 -0.08706695 -0.041719746 0.27411184
000030 be 1d e7 bc 24 fb 52 bd 44 ba 93 bd 54 44 6a 3e
       -0.028212424 -0.051509038 -0.07213262 0.22877628
000040 e0 b8 1d bd 6e c8 14 3b 0b 7d 77 3e 62 26 c8 bd
       -0.03850639 0.0022702473 0.24168794 -0.09772946
000050 0e 5f 65 bd c7 eb 8d 3e 8c 5f 28 bd 38 43 3c bb
       -0.055998854 0.27718946 -0.041106746 -0.002872659
000060 9f 55 0a be 1d be 08 3d 17 da 65 3e ba 9b 6e bd
       -0.13509224 0.03338443 0.22446476 -0.05825398
000070 a1 37 5d 3e 1a aa c3 3d b6 ef 8a bc 53 c7 2d bd
       0.21603252 0.09553929 -0.016960006 -0.04242642
000080 ce 48 b0 bd 0e 16 cc 3d 99 ef 72 3e 12 58 75 3e
       -0.086076364 0.09965144 0.23724212 0.23959377
000090 02 97 34 3c c8 05 70 3e 46 90 0b be 29 81 47 bc
       0.011022331 0.23439705 -0.13629255 -0.01217679
0000a0 2d 1d 74 3e d0 54 4e 3e 0c b2 a3 bd b9 fd 12 be
       0.23839255 0.20149541 -0.07992944 -0.143546
0000b0 2f 5b 0d be d4 79 8a 3e 00 2e 95 3d 37 17 45 bd
       -0.13804315 0.27046072 0.072841644 -0.048117843
0000c0 e2 70 50 3e 83 f7 8e bd fe 51 3d 3e fd 8c f2 3d
       0.20355561 -0.06980803 0.18488309 0.11843298
0000d0 97 05 71 3d 04 c7 85 3e 95 76 29 bd 5f 7c 80 3c
       0.05884322 0.261284 -0.041372854 0.015684305
0000e0 5e 92 27 3e 7e 3c 80 3e 09 d4 60 3e 11 88 8c 3e
       0.16364428 0.25046152 0.21955885 0.2744756
0000f0 53 78 5d 3e 7e ad 77 3d 82 a6 5d bd 47 51 19 3e
       0.21627931 0.06046819 -0.054113872 0.14972411
000100 ed 39 e3 bd 50 42 29 bd 9f 5e 28 3e 17 e0 77 3e
       -0.11095033 -0.041323006 0.16442345 0.24206577
000110 f9 e9 37 bd f9 78 42 3d 52 a4 29 3e b2 1a eb bd
       -0.044900868 0.04747865 0.1656659 -0.11479701
000120 43 70 7b bc b3 01 5b bb 04 2a be bd 27 34 5e 3e
       -0.0153465895 -0.003341776 -0.092853576 0.21699582
000130 e5 3b a2 bd ad ff b3 bd 00 ec c6 bc bb 45 6a 3e
       -0.0792158 -0.08789001 -0.024282455 0.22878163
000140 e5 52 c8 3b 3f 8c 08 bd 60 d8 0f 3e f0 1a 2f bd
       0.0061133974 -0.033336874 0.14047384 -0.0427503
000150 3a a6 1d 3d f2 74 77 3e 2a 43 85 bd 59 41 27 bd
       0.038488604 0.24165705 -0.06506951 -0.040833805
000160 92 07 fc bd 58 26 cf 38 18 73 7d 3e 85 b5 66 3c
       -0.123061314 9.877671e-05 0.24750936 0.014081364
000170 1a da 69 3e 12 74 44 3e 80 d3 12 3c 0a 9b b1 bd
       0.22837105 0.19184902 0.008961558 -0.086721495
000180 3c 1c 15 bd b3 ad b5 bc 5a bf 60 3e 11 53 60 3e
       -0.03640388 -0.022177553 0.21947995 0.21906687
000190 78 32 14 bd 0e 9c 6b 3e 57 fc 24 be 3d e0 99 bb
       -0.036180943 0.23008749 -0.16111885 -0.0046959207
0001a0 3b e9 76 3e 99 31 19 3d 77 bf 8f bd fa 87 19 be
       0.24112408 0.037400816 -0.07018941 -0.14993277
0001b0 a1 4c d6 bb 8f e4 4f 3e ff 66 6d 3d 61 a5 12 be
       -0.0065398966 0.20302032 0.057959553 -0.143209
0001c0 6f 34 f6 3d 3e ef 70 3d 61 71 a5 3c c3 1d ac bd
       0.1202172 0.05882191 0.020195665 -0.08404114
0001d0 5b 90 32 3e 17 66 69 3e 59 83 dc bc 3f d8 9f 3c
       0.1743788 0.2279285 -0.0269181 0.019512294
0001e0 54 51 44 3d a2 91 58 3e 6a da 80 3e bc 62 5e 3e
       0.047929123 0.21149305 0.25166637 0.21717352
0001f0 78 28 38 3e c0 ac 05 3e 1b 34 bd bc 80 f4 72 3e
       0.17984188 0.1305418 -0.023096135 0.23726082
000200 54 39 04 be e9 a2 07 bd 6d 9b 0f 3e 29 02 5e 3e
       -0.12912494 -0.033114348 0.14024134 0.21680512
000210 e1 0a f7 3d c9 9b a9 bd c3 27 05 3e b4 99 6b bd
       0.12062622 -0.08281667 0.13003449 -0.05751963
000220 01 bf c9 bd b0 01 51 3d 12 9b 78 bd 89 6f 43 3e
       -0.09850884 0.051027 -0.06069476 0.19085516
000230 92 31 36 be 8f 09 c4 3d 58 e6 d5 bc 17 6f 58 3e
       -0.17792347 0.09572136 -0.026110813 0.21136127
000240 52 96 08 be 79 81 ca bd 9a a6 e5 bd e7 91 4d bd
       -0.13338593 -0.09887976 -0.11213417 -0.05018797
000250 87 45 0e 3d 25 0f 76 3e 88 40 c7 bd 87 e4 3b 3e
       0.034734275 0.24029215 -0.09729105 0.18348895
000260 f7 29 24 be 7e 88 0c 3e 58 02 55 3e 2e ec 2a 3b
       -0.16031633 0.13723943 0.20801675 0.0026080715
000270 b1 ec 41 3e 27 94 2b 3e 46 57 29 bd 4b d4 f5 bd
       0.18937947 0.16755734 -0.041342996 -0.12003382
000280 4e 52 2e bd 19 35 ac 3c bc 20 4c 3e c9 32 45 3e
       -0.04255896 0.021021413 0.19934362 0.19257654
000290 fc 82 ba bc 84 da 5d 3e 20 86 e9 bd f4 9c a6 bd
       -0.022767536 0.21665388 -0.114025354 -0.08135405
0002a0 cb 09 6f 3e bc 1d c3 3c 3c bb 22 3c 55 87 f7 bd
       0.2334358 0.02381789 0.0099323355 -0.120863594
0002b0 ab 61 98 bd 93 71 34 3e f6 e1 0e 3c fb 21 61 bd
       -0.07440504 0.1762145 0.0087208655 -0.054964047
0002c0 cb 11 a3 3d 97 f8 95 bd 25 54 a9 bd d6 32 83 3d
       0.07962378 -0.073228054 -0.082680024 0.064061806
0002d0 c1 57 2f 3e 0d 6c 5e 3e f9 f6 3c 3c 55 e2 84 3d
       0.17123319 0.21720906 0.011533492 0.06488482
0002e0 21 db 0e 3e 58 d9 52 3e d4 27 65 3e 4d 2d 54 3e
       0.13950779 0.20590723 0.22378474 0.20720406
0002f0 ae 20 3a 3e c5 c2 89 3d d6 37 50 bd 11 30 38 3e
       0.18176529 0.067266025 -0.0508345 0.17987086
000300 d7 04 8a 3d 9d 19 22 bd d2 38 d5 bd 4b fd 52 3e
       0.067392044 -0.039575208 -0.10411228 0.20604436
000310 b3 0d 52 3d 9f 72 f3 3d 4f 3a e0 3d 77 35 71 bc
       0.051282596 0.118870966 0.109486215 -0.01472222
000320 56 a8 3a be 02 8b 1b 3d 3e 3c 82 bd 65 75 6f 3e
       -0.18228278 0.037974365 -0.063591465 0.23384626
000330 46 1e d4 bc 4d 11 59 3c 7d 93 dc bd 92 51 4d 3e
       -0.025893342 0.013248754 -0.10770319 0.20050648
000340 71 d4 a9 bd d2 86 c0 bd 55 ac 13 bc 19 8f c9 bd
       -0.08292473 -0.09400715 -0.009013255 -0.09841747
000350 84 e2 1a 3e ba 8b 61 3e 4d 08 ad 3b 9c 11 dd 3c
       0.15125471 0.22025958 0.0052805305 0.026985936
000360 62 a6 2a be 08 d3 b6 3d 85 15 44 3e 26 da 82 3c
       -0.16665033 0.0892697 0.19148834 0.015973162
000370 13 6d 2c 3e f5 c9 07 3e ae 85 66 3d ea 9e 45 bd
       0.16838484 0.13260634 0.05627983 -0.048247255
000380 4c a6 7a bd 99 d5 82 bd 91 14 37 3e 06 43 2c 3e
       -0.06119375 -0.06388397 0.17878939 0.16822442
000390 4a 1b 8b bb b9 9d 4e 3e ef be 0f be 9c d4 f7 bc
       -0.0042451965 0.20177354 -0.14037679 -0.030252747
0003a0 67 7d 76 3e 04 ed 9f 3c c9 db 83 bd 83 ae 79 3d
       0.24071275 0.019522198 -0.06438405 0.060957443
0003b0 1f 26 e5 bd b6 cc 38 3e ec 2c 05 3a 72 ea 69 3d
       -0.11188912 0.18046841 0.0005080241 0.05710835
0003c0 08 0d 07 3d fe 52 07 be 60 32 e1 3c 05 44 a5 bd
       0.032971412 -0.13215253 0.027489841 -0.08069614
0003d0 fc 3e 11 3e 37 1f 46 3e ed 52 f1 bb f8 29 e4 3d
       0.14184183 0.19347845 -0.007364622 0.111408174
0003e0 e2 c1 9a 3d 85 0d 56 3e 54 e3 7d 3e e4 30 46 3e
       0.075565115 0.20903595 0.2479375 0.19354588
0003f0 aa 07 16 3e 6e 55 16 bb 0e 18 22 bd 8a 1d 30 3e
       0.14651361 -0.0022939104 -0.03957372 0.17198768

encoder.proj_mu.weight f4 [8, 4096]
000000 93 7e 4e 3d 99 11 2d 3e 37 a1 88 bd e0 ff c6 3a
       0.05041368 0.16901244 -0.06671374 0.0015182458
000010 7e eb 5e bd f5 aa 86 3c 65 9d 81 be 1c 8d 36 ba
       -0.0544238 0.01643894 -0.25315395 -0.0006963776
000020 68 8a 21 bc ed 5d 04 bc 18 2b 59 3c 47 b6 2c bd
       -0.009859659 -0.008079034 0.013254903 -0.04216602
000030 1e e5 91 3c b1 eb 83 bd 92 7c 1e 3b 34 b0 2a bd
       0.017809447 -0.06441439 0.0024183136 -0.041671947
000040 28 40 1c 3c 47 0e f4 ba a2 c7 cd bc 42 05 3b bc
       0.00953678 -0.0018619978 -0.025119606 -0.011414828
000050 38 26 2c bd c8 e6 6d bd 16 f8 48 3e c6 8f f9 bc
       -0.042028636 -0.05808142 0.19625887 -0.030464064
000060 01 b5 07 3d d7 5f 87 be c6 3f 95 bc 6f c7 25 bc
       0.033131603 -0.26440307 -0.018218886 -0.010118349
000070 08 b2 d8 bc fb be 1c bd 05 58 1a bd a0 a0 90 3d
       -0.02645208 -0.03826807 -0.0376816 0.07061887
000080 53 6f 9d bd d0 ad 0b be c0 f1 89 bc 4f f1 4f be
       -0.07687249 -0.13640523 -0.016838908 -0.20306896
000090 8b 07 d9 3c 25 35 57 b9 b9 2e 28 bc 7b 9f a0 bd
       0.026492855 -0.00020523796 -0.010265046 -0.078429185
0000a0 c9 4f 61 bc 33 b7 7c be 97 34 ba bd 5f 20 c1 bc
       -0.013751932 -0.2467926 -0.09092062 -0.023575006
0000b0 66 92 1e bb 98 c8 09 bd 62 22 56 bd e4 38 46 3d
       -0.0024196147 -0.033638567 -0.052278884 0.0483941
0000c0 9e f0 11 be f1 b4 06 be e8 1a 1e 3e 8e a0 b7 3d
       -0.14251944 -0.13154961 0.15439951 0.0896617
0000d0 6f f0 66 be c5 75 aa 3c 4d d6 fb 3d 53 7d 07 bd
       -0.22552656 0.02080811 0.12296734 -0.033078503
0000e0 d6 81 5d 3c ed ab ab bc b6 7f 9c bb 62 0b 66 3c
       0.013519725 -0.020956004 -0.0047759665 0.0140408
0000f0 a1 00 ef bc b9 18 d7 3d 6c 80 be 3d 44 82 b8 bd
       -0.029175105 0.10502762 0.09301838 -0.09009221
000100 66 3b 37 3d 2a ea c4 3c 82 10 69 3e e4 46 63 3d
       0.04473438 0.02403744 0.22760203 0.05548753
000110 eb 47 90 bb 1d da 78 bd d1 08 63 3c 3a f4 5c 3c
       -0.0044031045 -0.060754884 0.013857082 0.0134859625
000120 05 8b 8e bd 69 b2 c0 3d b4 d7 ce bd df 0c 32 3d
       -0.069601096 0.09409029 -0.10099736 0.043469306
000130 6f ee f1 3a cc 84 cb 3d 41 63 e4 be 65 c6 59 3d
       0.00184579 0.09937438 -0.44606975 0.05316772
000140 54 d2 f0 bc d0 48 fb 3c 03 a3 6d be a4 21 b5 ba
       -0.029397167 0.030674368 -0.23206715 -0.001381923
000150 95 e7 0d 3c 40 d8 aa 3c ab 95 e7 3c bf a8 11 bb
       0.0086611705 0.02085507 0.02826961 -0.0022225825
000160 1f d5 f0 bd 18 8e a8 bc d9 26 55 3c a0 7c c0 bb
       -0.117593996 -0.020575568 0.01300975 -0.0058742315
000170 44 89 47 3d 62 c4 8b 3c 80 1e 25 bd 5e 36 23 3c
       0.04871489 0.017061416 -0.04031229 0.009961693
000180 5d 53 8f 3d 6f ed cb 3d 84 51 4e 3d 5d ba e9 3c
       0.06998322 0.09957396 0.050370708 0.028531248
000190 3c 19 b5 bd 31 e9 67 3d b8 f7 f0 3d 96 83 62 3d
       -0.08842704 0.056618873 0.117659986 0.05530127
0001a0 bb a1 11 3d c7 72 0b be 34 1f ef 3d a2 8d d0 bd
       0.03555463 -0.13618003 0.116758734 -0.10183264
0001b0 43 56 95 3d af 15 e0 3c 60 df 68 bd 07 b8 a0 bc
       0.07291844 0.02735409 -0.056853652 -0.019619001
0001c0 f3 bc 5a bd a6 f9 09 be fb df 4a be 25 82 12 3e
       -0.053402852 -0.1347414 -0.19812004 0.14307459
0001d0 98 70 66 bd d2 5c 4f 3d 8d 64 c1 3d 3d 80 20 3e
       -0.05625972 0.05062563 0.09443007 0.15673919
0001e0 e0 82 93 3e 72 7d 10 3b 29 f9 0e 3d b4 1a e6 bc
       0.28810787 0.0022047427 0.034905586 -0.028088905
0001f0 2d 9e d8 3c b5 4e bb 3c a4 75 26 3d 95 67 38 3d
       0.026442612 0.022864679 0.040639535 0.04502066
000200 c5 01 c7 3d 40 e9 e9 3c ce ec 74 3b 32 e5 db 3d
       0.097171344 0.028553605 0.0037372592 0.10737075
000210 af 05 62 3e 0e 08 05 be c7 c5 98 3d f0 c1 32 bc
       0.2207248 -0.12991354 0.07459598 -0.010910496
000220 ca bd d6 3d fd 08 df bd 9c 46 4b 3c 1e 21 9b 3d
       0.10485418 -0.10890386 0.012406971 0.07574676
000230 a7 00 d0 b9 81 27 5c 3d d7 0f 28 bd dc 98 c8 3d
       -0.00039673338 0.05374861 -0.04103073 0.097947806
000240 ea 0e 4a be b5 7f 46 3c a0 81 e8 bd ab 83 da 3a
       -0.19732252 0.012115409 -0.11352849 0.001667132
000250 06 f0 15 bd ca b4 8c 3d d3 ea 6c 3b 85 7d c3 3d
       -0.036605857 0.0687042 0.0036150708 0.09545425
000260 d4 ef f8 bc 21 f4 77 3d 28 e1 92 3d e1 01 63 3d
       -0.030387796 0.060535554 0.071718514 0.055421714
000270 a0 dd e4 3d a7 71 ec 3d 3c 9e b6 bd 73 75 8c 3d
       0.11175084 0.11545115 -0.089168996 0.06858339
000280 a5 63 c5 3d 95 ad 38 3c c9 26 c2 3d c2 21 e2 3d
       0.09638146 0.011271854 0.09480054 0.11041595
000290 9b 1f 84 bd 30 9e b4 3d f1 8d d3 3d cb 35 51 3d
       -0.06451341 0.08819234 0.103298075 0.05107669
0002a0 c9 cf d4 3d e2 8b 06 3e f7 53 60 3d ce bb fd 3d
       0.103911944 0.13139299 0.054767575 0.123893365
0002b0 73 f6 08 3c 3a 0b d3 3d 3d db cf bc 33 69 14 be
       0.008359539 0.10304876 -0.025373096 -0.14493255
0002c0 9d d3 da bd 5c 6e 91 bd 0b ed 59 be a8 b2 21 3e
       -0.10684893 -0.071011275 -0.21281831 0.15790808
0002d0 ec 8c c0 3c 22 14 c0 3d 03 85 81 bd dc ce d1 3d
       0.023504697 0.0937884 -0.06324198 0.102445334
0002e0 a9 af 39 bd d8 83 a2 3d bf cc b0 3d 06 dd 71 3d
       -0.04533354 0.079353034 0.08632802 0.059048675
0002f0 41 ee bb 3d c8 a8 ab bd 08 07 8d bd 83 84 e1 3d
       0.09176303 -0.08381802 -0.06886107 0.11011603
000300 d8 56 e3 3d 46 fb 83 3d 8c b1 a7 bd 2e 40 ed 3d
       0.111005485 0.06444411 -0.08188161 0.11584507
000310 ba 6f 1b 3e c3 d2 b7 bd ad d0 93 3d d6 9a 8f bc
       0.15179339 -0.089757465 0.07217536 -0.017529886
000320 35 fb cc 3d 65 57 b5 3c 12 b0 14 bc 07 9b b9 3d
       0.100088514 0.0221364 -0.009075182 0.09062772
000330 fb 90 0d 3d 72 71 1d bd de a4 45 3e 40 c9 eb 3d
       0.034562092 -0.038438268 0.19301173 0.11512995
000340 ec d8 09 3d c8 0d 87 bc 69 ea 8d 3c da d8 3e bd
       0.03365414 -0.016486064 0.01732369 -0.046593525
000350 92 d2 08 3c a9 c1 a1 3d 1b 4e b1 3c 18 04 10 be
       0.008350985 0.07898266 0.021643689 -0.14064062
000360 06 04 f3 bb 6d b8 ad bb 92 d2 be 3d d8 3a 10 bd
       -0.007416251 -0.0053015263 0.09317507 -0.035212368
000370 1d dc e5 3d 1d 00 18 3e cb 68 8d bd 87 c1 cb 3d
       0.11223624 0.14843793 -0.06904753 0.09949022
000380 7d 40 97 3d a5 b2 20 bb ce 9e 04 3e 1e c4 d6 3d
       0.07385347 -0.0024520543 0.12951204 0.10486625
000390 a3 01 99 3d 03 21 e3 3d 80 f0 cf 3d 81 9d 8d bd
       0.07471015 0.11090281 0.101532936 -0.06914807
0003a0 ec 6b e6 3d a5 ee cd bd 6d 80 35 bd d0 57 89 bb
       0.11251053 -0.100552835 -0.04431193 -0.0041913763
0003b0 8b 3c ad 3c 11 42 d6 3d e8 3b 99 bd 54 88 51 3d
       0.021147033 0.1046182 -0.07482129 0.051155403
0003c0 cc a6 ab bd 00 71 32 be 44 42 33 3e 40 6a ff 3d
       -0.08381423 -0.17425919 0.17505747 0.124714375
0003d0 1f 2d 08 bd 28 dc e7 3d e1 dd b0 bd a4 49 6d 3d
       -0.033246156 0.11321288 -0.0863607 0.057931557
0003e0 d9 9f c9 3d 6a f0 c8 3d 7f b3 e2 3d 40 1a 8b 3d
       0.09844942 0.0981148 0.110693924 0.06792116
0003f0 ab 59 f8 3d ed 63 3a be 46 a4 d5 bd c2 5b 0a 3e
       0.12126478 -0.18202181 -0.10431723 0.13511565

encoder.batch_norm_2.running_var f4 [32]
000000 e6 f3 c3 3f 92 35 cf 3f de 60 bc 3f b4 3d 29 40
       1.5308807 1.6188223 1.4717062 2.644391
000010 33 c5 c3 3f a2 ae 39 40 20 ee cb 3f 1f d4 aa 3f
       1.5294555 2.9012837 1.5932045 1.3345984
000020 ef 41 6e 3f ad 30 37 40 db 8b d4 3f 8c 80 c8 3f
       0.93069357 2.862346 1.660518 1.5664229
000030 41 13 c5 3f ed 7d 19 40 17 d7 0c 40 38 bb eb 3f
       1.5396501 2.398311 2.200628 1.841651
000040 e1 9b 85 3f 5a b9 7f 3f bd 40 74 40 a0 d3 80 40
       1.0438195 0.998922 3.8164513 4.025833
000050 4a 57 8f 3f 89 2f cd 3f 97 77 04 40 51 a6 0a 40
       1.1198514 1.6030132 2.0697992 2.1664011
000060 b4 1d 12 40 c1 bc b2 3f 82 47 3e 40 a7 72 a0 40
       2.283063 1.3963853 2.9731145 5.0139956
000070 03 15 d9 3f 98 1d 4e 3f 07 a5 77 40 80 d0 a4 3f
       1.6959537 0.80513906 3.8694475 1.2876129

encoder.batch_norm_1.weight f4 [16]
000000 69 77 4c 3f f6 61 3f 3f 78 c9 5c 3f 87 f6 42 3f
       0.79869705 0.7475885 0.86244917 0.7615742
000010 65 93 57 3f 03 3f 66 3f 02 cf 60 3f f5 42 52 3f
       0.8420928 0.899399 0.8781587 0.8213342
000020 90 1d 46 3f 6d 12 42 3f b4 cd 3e 3f 7f 3e 29 3f
       0.7738886 0.75809366 0.7453263 0.66110986
000030 43 da 58 3f 05 33 42 3f b1 e3 31 3f f3 49 47 3f
       0.8470804 0.758591 0.69488055 0.7784721

encoder.proj_log_var.bias f4 [8]
000000 4a f0 d2 be 84 7f d9 be 6e c0 fb be 3b 20 bc be
       -0.4119895 -0.424801 -0.4917025 -0.3674334
000010 92 36 24 bf 74 05 f7 be 65 7a e3 be 7e 9a c9 be
       -0.6414577 -0.48246348 -0.44429317 -0.3937568

decoder.batch_norm_2.running_var f4 [16]
000000 ee a2 be 40 46 05 d7 40 0b 1d 5b 40 30 4a 4d 40
       5.957389 6.7193937 3.4236476 3.207653
000010 6f 5a 61 40 61 bd eb 3f 3f 73 a3 40 26 4e b5 40
       3.5211446 1.8417169 5.107818 5.6657896
000020 fa 5f 1a 40 c9 52 83 40 7c a0 2b 41 16 ed da 40
       2.412108 4.1038556 10.726681 6.841441
000030 87 d6 e2 40 43 53 22 40 ea e0 6a 40 ba c7 d8 40
       7.0886874 2.536332 3.6699777 6.7743807

decoder.batch_norm_2.weight f4 [16]
000000 ed 8f de 3e c1 9a 0d 3f 37 17 1c 3f 8e 46 e9 3e
       0.43469182 0.5531426 0.60972923 0.4556164
000010 5a bd 13 3f a1 17 f6 3e 56 8f 28 3f 26 08 9e 3e
       0.577108 0.48064902 0.65843713 0.30865592
000020 e9 1c fb 3e 20 dc 33 3f 57 e4 02 3f a8 16 0a 3f
       0.49045494 0.7025776 0.5112967 0.5394082
000030 59 b3 36 3f e9 b2 f2 3e c5 8e fd 3e 51 63 1b 3f
       0.7136741 0.47402123 0.49522987 0.6069842

encoder.batch_norm_3.running_var f4 [64]
000000 38 42 93 40 1c fc e2 40 d3 2c 0a 40 db ce db 40
       4.6018333 7.093275 2.1589859 6.869001
000010 92 5b a2 40 43 ed ab 40 24 fe 8c 41 e2 7c 8c 40
       5.073678 5.3727126 17.624092 4.3902445
000020 bf e0 9c 40 d1 9f 6b 41 51 5a 5a 40 ba 0c e8 40
       4.902435 14.726518 3.4117625 7.2515535
000030 b5 2c c4 40 a5 27 13 40 fd 36 9d 40 e9 5a 1a 41
       6.1304574 2.2992947 4.9129624 9.647195
000040 ab 7e cf 40 2e 56 f8 40 03 81 0f 40 b7 9a 40 40
       6.4842124 7.76052 2.2422493 3.009443
000050 4f 1d 86 40 dd 13 5e 41 3a e9 8c 40 ec d9 9b 40
       4.1910777 13.879849 4.40347 4.870352
000060 99 9f d1 40 23 7c 4a 40 d0 36 d9 40 d5 87 52 40
       6.550732 3.1638267 6.787941 3.2895405
000070 44 04 95 41 d4 fe 9f 40 6f d4 de 40 69 e1 c3 41
       18.627083 4.999857 6.963432 24.485064
000080 f9 af fa 40 56 e3 02 40 9f 16 1c 41 c8 28 ab 41
       7.833981 2.0451255 9.755523 21.394913
000090 2f c7 95 40 c1 74 0c 41 de bf 36 41 3b 44 22 41
       4.6805644 8.778504 11.421843 10.141658
0000a0 73 ea e4 40 19 cd 90 40 49 a6 8f 40 0c 37 3d 40
       7.1536193 4.5250363 4.4890485 2.9564848
0000b0 fa ac d0 40 ba d5 30 41 ef ca 26 40 23 f4 27 40
       6.5211153 11.052179 2.606136 2.624276
0000c0 3b 69 da 40 77 e4 79 40 6e e2 30 40 dc af ce 40
       6.8253455 3.9045694 2.7638202 6.458967
0000d0 ae 6b 29 41 84 44 1c 41 20 03 09 40 d1 84 bd 40
       10.588789 9.766727 2.1408157 5.922463
0000e0 88 e0 09 41 a6 80 02 41 48 03 a0 40 82 eb 32 41
       8.617317 8.156408 5.0004005 11.182497
0000f0 c6 4f c5 40 9e 9c 85 41 2c e3 7a 40 45 25 0c 41
       6.165988 16.701473 3.9201155 8.759099

encoder.batch_norm_3.weight f4 [64]
000000 d1 37 a4 3e 6a 90 b5 3e 19 46 9c 3e 91 90 e9 3e
       0.32073835 0.35461742 0.3052223 0.45618108
000010 5b ba c1 3e 08 ca a7 3e 00 c9 ef 3e 2a 9d 99 3e
       0.3783749 0.32771325 0.46833038 0.3000272
000020 9c 9d bc 3e 8d d4 d3 3e 65 46 99 3e c7 d5 e4 3e
       0.36838996 0.413731 0.2993652 0.4469435
000030 93 dc c2 3e 11 35 b0 3e 63 ac 9b 3e 33 c6 e9 3e
       0.3805891 0.34415486 0.30404958 0.45659027
000040 af 13 cd 3e 2d a9 b6 3e ac 8e 91 3e f8 39 ad 3e
       0.4005408 0.35675946 0.28429163 0.3383329
000050 08 e0 c1 3e af 8a f0 3e 75 fc b0 3e 47 af ae 3e
       0.37866235 0.46980807 0.3456761 0.341181
000060 d1 64 c5 3e 5d 4b ac 3e 20 f6 d4 3e ff 7b c0 3e
       0.3855348 0.33651248 0.41594028 0.37594602
000070 bd 23 f6 3e 21 7c df 3e 7f 1b a8 3e 33 1f ea 3e
       0.4807414 0.4364939 0.32833478 0.45726928
000080 21 b1 c5 3e fd 70 a4 3e df 99 e8 3e e2 d5 e4 3e
       0.386117 0.32117453 0.45429894 0.4469443
000090 c8 90 97 3e a2 00 f1 3e 5b fd be 3e 44 11 b7 3e
       0.29602647 0.47070795 0.3730267 0.3575536
0000a0 55 41 f3 3e 85 ea dc 3e 0a 43 b3 3e 3d 4b 9e 3e
       0.47510782 0.43147674 0.35012084 0.30916777
0000b0 e0 58 d0 3e b8 cf e4 3e 0a 78 b7 3e f9 3b a9 3e
       0.40692806 0.44689727 0.3583377 0.33053568
0000c0 96 84 e1 3e 6d a1 bd 3e 91 98 bc 3e 49 73 c0 3e
       0.44046468 0.3703722 0.3683515 0.37587956
0000d0 ba b7 d4 3e b7 b4 db 3e d2 e5 9c 3e 98 af c5 3e
       0.41546422 0.42911312 0.3064409 0.3861053
0000e0 cf 4e c1 3e 0a 76 e5 3e 26 41 de 3e d4 4b f4 3e
       0.3775544 0.4481662 0.4340908 0.47714102
0000f0 64 b7 e0 3e 77 64 e2 3e c8 2e a4 3e 1f ee e7 3e
       0.43889916 0.44217274 0.3206694 0.4529886

encoder.batch_norm_3.running_mean f4 [64]
000000 2e ce 0d c0 4a 77 fc bf a7 8e 90 bf 14 e3 7a bf
       -2.2157092 -1.9723904 -1.1293534 -0.98002744
000010 a6 16 b7 bf 6e 2f 01 c0 64 a3 1d c0 65 72 b6 bf
       -1.4303787 -2.0185199 -2.4630976 -1.425366
000020 37 9b 0c c0 27 24 68 bf 7e ed 0b c0 af 65 1f c0
       -2.1969736 -0.90680164 -2.1863704 -2.4905813
000030 b3 47 04 c0 b4 4f 40 bf 2d e4 0b c0 16 ac 02 c0
       -2.0668762 -0.7512162 -2.1858017 -2.0417533
000040 fd 1f 31 c0 eb 10 17 c0 47 d7 3d bf c4 ef 07 c0
       -2.7675774 -2.3604076 -0.7415661 -2.1240091
000050 21 ff 0c c0 90 64 07 c0 52 04 15 c0 a4 3e 39 bf
       -2.2030718 -2.1155128 -2.3283887 -0.72361207
000060 fa 04 13 c0 ae ca 8b bf 64 be f6 bf 2a 8d 34 bf
       -2.2971787 -1.0921228 -1.9276853 -0.705279
000070 d8 89 43 c0 9b a5 9f bf c5 13 be bf 7b 52 fc bf
       -3.0552883 -1.2472414 -1.4849783 -1.9712671
000080 d0 ad 23 c0 79 8f 74 bf 8a 6a 0f c0 5b a2 be bf
       -2.5574837 -0.9553142 -2.2408776 -1.4893297
000090 2f 2a e3 bf 6a a3 c6 be 44 e9 13 c0 d0 f0 12 c0
       -1.7747248 -0.3879655 -2.3111124 -2.295948
0000a0 77 96 c4 bf 3f 4b a0 bf fd 2b 1a c0 fe 72 f0 bf
       -1.5358418 -1.2522963 -2.4089348 -1.8785093
0000b0 79 8f 0f c0 b3 df da bf c8 ab 63 bf e3 1e e4 bf
       -2.2431319 -1.7099518 -0.8893399 -1.7821926
0000c0 c8 9c e2 bf 9c 65 0a c0 18 3a 09 c0 94 40 05 c0
       -1.7704096 -2.1624517 -2.1441708 -2.0820665
0000d0 4c 59 e2 bf 54 e4 b0 bf d9 ef 33 be 75 b4 d9 bf
       -1.7683501 -1.381968 -0.17571963 -1.7008196
0000e0 50 07 f9 bf e2 e7 51 bf 63 cb b5 bf 5f e6 f2 bf
       -1.9455357 -0.8199445 -1.4202694 -1.8976554
0000f0 6c 4f 05 c0 40 b1 0a c0 6a bd 57 bf 60 b9 39 bf
       -2.0829725 -2.1670685 -0.842734 -0.72548485

decoder.up_conv_2.conv.bias f4 [16]
000000 0b d3 24 3e 90 ad 61 3f 7c 3e 8f be 70 19 6e 3c
       0.16096132 0.8815546 -0.2797736 0.014532432
000010 3d 7e 34 bd a4 1b 24 3e 2f 5f ac bb bc d8 4a bf
       -0.044065703 0.16026169 -0.00526037 -0.7923696
000020 77 a5 8b bf d6 e4 15 be 1c 39 34 bf 39 33 08 3c
       -1.0909871 -0.14638075 -0.7039964 0.008312994
000030 6d 50 91 bf 4a 86 bd be 1f dc 32 3e 51 14 c7 bb
       -1.1352669 -0.37016517 0.17466782 -0.00607542

encoder.batch_norm_2.bias f4 [32]
000000 bf 0c ed bc 20 1a db be 59 13 77 be f0 39 70 bd
       -0.028936742 -0.4279337 -0.24128474 -0.058649004
000010 20 bb 33 be 7b 11 84 be f0 96 cd bd be cd 79 bd
       -0.17551851 -0.25794587 -0.10038555 -0.060987227
000020 8c 65 b1 be 19 2d 55 be 38 33 f9 be ec d9 88 be
       -0.34647787 -0.20817985 -0.4867189 -0.2672876
000030 99 52 c3 be 94 8b 4a bc b1 f0 20 bf ea 57 a9 be
       -0.38148955 -0.01236238 -0.62867266 -0.33074886
000040 f5 11 9f be cb 4f a4 be 72 94 09 3b 59 91 2d bd
       -0.31068388 -0.32092127 0.0020993021 -0.042374942
000050 ef 2e 10 bf 3a 0e ba be e8 00 c0 be ce 5a b5 bc
       -0.56321615 -0.3633898 -0.3750069 -0.022138026
000060 5a ef 58 3d f7 b2 b3 bb 29 e3 3d be 5e 63 34 3e
       0.05296264 -0.0054839808 -0.18543686 0.1761603
000070 3d 57 03 be af 2b 2b be 26 bf cf bd 6f f1 ce bd
       -0.12826248 -0.16715883 -0.101438805 -0.101046436

encoder.proj_mu.bias f4 [8]
000000 56 80 0c 3c 6b 5e 8d bb 2d c3 5c 3d 05 48 33 3d
       0.00857552 -0.004314234 0.05389707 0.043769855
000010 7a f4 05 be 92 41 ca 3b 80 ad 07 bd 03 05 f7 bd
       -0.13081542 0.0061723674 -0.033124447 -0.12061503
